data.pth (torch, 5951 bytes, 6 tensors)

l1.weight f4 [8, 72]
000000 9f 3c a5 be 71 52 93 3d 7a c5 81 be 3f 7d 1b be
       -0.32272813 0.07193459 -0.25345975 -0.15184496
000010 56 c7 29 bf 77 68 4a bd fe fd a7 3e 9e 48 fd 3e
       -0.6631979 -0.04941603 0.32810968 0.49469465
000020 e9 39 2b bf 80 ef 0a 3e 25 93 6e 3e 00 9a 47 3e
       -0.6688524 0.13567924 0.23298319 0.1949234
000030 d3 8b d3 bc 2d 20 da bc 56 b5 ac be db b5 4f 3e
       -0.02582351 -0.02662667 -0.33732098 0.20284216
000040 32 73 82 3e 9e 16 c3 3e 8e 71 8a 3e 81 9e 72 be
       0.25478512 0.38103193 0.2703976 -0.23693277
000050 92 73 d4 be 41 04 23 bf 2f 99 96 bd 41 60 91 be
       -0.41494423 -0.63678366 -0.07353436 -0.28393748
000060 87 1a 6f be 6c f8 e9 3e 57 34 2b bf 06 04 0f 3f
       -0.23349963 0.45697343 -0.6687674 0.55865514
000070 bf ff 35 3f 31 be 70 bd cd 59 23 3f 3a 35 26 3f
       0.7109336 -0.05877513 0.638089 0.6492497
000080 71 e6 2b 3e 39 0f 69 3c 69 77 a3 be 03 4e b3 3e
       0.16787125 0.014224821 -0.3192704 0.35020456
000090 01 88 72 be 2f 05 78 3e 61 c8 1e bf d7 bd d1 be
       -0.23684694 0.24220727 -0.62024504 -0.4096515
0000a0 f7 2d 42 3e 29 b5 cd be 63 05 e9 3e 9f c9 0a 3e
       0.18962847 -0.40177277 0.45511922 0.13553475
0000b0 11 cb 1c be c5 83 3f be 46 7f 86 3e 6f 61 c6 3e
       -0.15311839 -0.1870261 0.26268977 0.3874621
0000c0 ff ed fe bd 0b 4d 01 3f 1a f3 14 3f 7a fa a8 bc
       -0.12447738 0.50508183 0.58183444 -0.020627249
0000d0 f7 46 bc be 5a ad 0b bf 47 72 48 3f 84 20 3f be
       -0.36772892 -0.5456139 0.78299373 -0.18664747
0000e0 5a 86 4d be b5 35 78 3e 3c 3b 90 be c1 82 5e be
       -0.20070782 0.24239238 -0.28170192 -0.21729566
0000f0 53 ca 9b 3d 0f 01 e8 bd 81 00 9a 3d ba 56 93 be
       0.0760695 -0.11328327 0.07519627 -0.28777105
000100 25 be 05 3f 11 c6 40 be c5 18 dd bd 60 85 17 3f
       0.5224326 -0.18825556 -0.1079574 0.5918789
000110 1b de 2a 3f 09 17 0b be 29 8c 15 3f b2 fc 93 3e
       0.66745156 -0.13583006 0.5841699 0.2890373
000120 e0 2f 6c 3e e7 89 15 3e 0d 28 24 be c5 22 28 bd
       0.23065138 0.14603387 -0.16030903 -0.041048784
000130 86 6b 94 be eb 3e 18 be e2 68 30 3e f4 c1 0c 3f
       -0.28988284 -0.14867751 0.1722751 0.5498345
000140 d5 e0 bc be ff 97 2f 3e b0 e3 e3 3e 5f 2d 06 3f
       -0.36890283 0.17147826 0.4450965 0.5241298
000150 63 4f a6 bd be 06 c0 bd 11 d1 dd be e5 3f 9d 3e
       -0.081206106 -0.09376286 -0.43323568 0.3071281
000160 3c 2c b3 3e 61 e7 e3 3e 41 8a 56 3f 66 86 a1 be
       0.34994686 0.44512466 0.8380471 -0.3154785
000170 d8 b6 28 be 3f d3 88 be b2 45 85 be 96 05 83 be
       -0.16476 -0.26723668 -0.26029736 -0.255902
000180 2b b5 06 3f 44 1d b3 3e 56 cd d0 be d0 49 ee 3e
       0.5262019 0.34983265 -0.4078166 0.4654069
000190 76 a7 de 3e 70 bd 0b 3f 86 1b e6 3e 3f aa de 3e
       0.43487138 0.54585934 0.44942874 0.43489262
0001a0 f8 ec 8b 3d 51 29 bb bc 55 0f 5f 3d d4 e8 27 3f
       0.068323076 -0.02284685 0.05445798 0.6558964
0001b0 50 a7 31 3f 41 0c c8 3e 77 3b b4 3e e3 fc f2 be
       0.69395924 0.3907185 0.35201618 -0.47458562
0001c0 a2 6e 00 3f 12 6a df 3d ea 46 2f 3f f7 4e 37 3f
       0.5016881 0.10908903 0.6846758 0.71604866
0001d0 a2 16 33 bd 64 5d 34 be 2c b7 00 3f 99 77 15 3f
       -0.043722756 -0.1761375 0.502795 0.58385617
0001e0 e0 98 62 be 64 65 f4 3e 5a c3 c0 3e 03 e9 40 bd
       -0.2212863 0.47733605 0.3764904 -0.047097217
0001f0 55 99 8f be 18 b8 06 bf 28 4a 19 3f 6f 62 aa 3e
       -0.2804667 -0.52624655 0.5987878 0.33278224
000200 fd 70 20 be 04 56 b0 3e 4c bb a5 be 61 3e a7 be
       -0.15668102 0.34440625 -0.3236946 -0.3266478
000210 94 16 1e 3f 1c e6 8e 3f f4 b0 ed 3e 85 54 20 be
       0.617532 1.1163974 0.46424067 -0.15657242
000220 11 3e ec 3e c9 07 24 be f1 b1 86 be 18 22 37 3f
       0.46141103 -0.16018595 -0.26307634 0.715364
000230 9a 9d 01 3f 86 cf 61 bd fb 16 ce 3e df ac 4f 3f
       0.50631106 -0.05512955 0.40251908 0.81123155
000240 5c 62 1c 3f 0f 9e 94 3d f8 82 a7 3e c4 5c 08 3f
       0.61087584 0.0725671 0.3271711 0.5326655
000250 f4 97 42 3e a0 ac d1 3e de 68 a8 be 61 82 d5 be
       0.19003278 0.40952015 -0.32892507 -0.41701034
000260 ba 0b 45 be 65 37 22 3f 1a 0b 1b 3e ad 99 01 3e
       -0.19242755 0.63365775 0.15140954 0.12656279
000270 a4 42 e1 3e 00 77 ed 3e a1 41 01 3f ea d4 35 3f
       0.43996155 0.46379852 0.50490767 0.71028006
000280 37 8d 5b bd 04 b8 62 be 8d c8 8d be af 2e aa 3e
       -0.05360147 -0.22140509 -0.2769207 0.33238742
000290 5a c0 36 3f 20 af 18 3e 71 40 81 3e 70 71 09 3f
       0.71387255 0.14910555 0.25244477 0.53688717
0002a0 2e 23 f2 bd ed a5 50 be d4 5d 48 be f8 57 38 be
       -0.11823116 -0.20375796 -0.19567043 -0.18002307
0002b0 d8 3d a8 be 58 2a 15 3f d2 f9 c4 be 36 48 e0 be
       -0.32859683 0.58267736 -0.38471848 -0.43805093
0002c0 a7 04 10 3f 76 b7 30 3f a7 6f 0c 3f 0d c9 ec 3e
       0.562571 0.6902994 0.5485787 0.4624714
0002d0 79 e1 23 bf 38 de d1 3b 2a 63 f5 be 50 33 36 be
       -0.6401592 0.0064046644 -0.4792722 -0.17793012
0002e0 49 a3 ea 3e 03 bf 10 3f c4 e4 21 3d 8d cb bb be
       0.45827702 0.5654146 0.03952481 -0.36678734
0002f0 e2 a9 c4 3e 13 db a8 3e 31 a4 2d bd f3 7b 5e 3e
       0.3841086 0.3297964 -0.042392913 0.2172697
000300 84 a5 b3 3e b2 fe 8f be 2a 11 0e be d3 a3 0b 3f
       0.35087216 -0.28124005 -0.13873735 0.5454685
000310 ea 35 9f 3e f8 55 19 be c1 ac 3e 3e 5f ec 70 3d
       0.3109582 -0.149742 0.18620588 0.05881917
000320 c5 0a ac 3e 8d 74 1d 3e 40 fa a1 3e 9c 56 82 3e
       0.33601967 0.15376492 0.31636238 0.25456703
000330 c7 b3 9a be 3d a4 69 3f 73 6f ef 3e 36 0c b1 3e
       -0.30215284 0.9126623 0.46764717 0.3457963
000340 c5 ce 41 3e dd c9 99 3e ec ef 8d 3e af 9f 5f bd
       0.18926533 0.30036822 0.27722108 -0.054595646
000350 f4 ea 67 be f6 a3 16 3f 87 d1 a1 be 5a 37 63 3e
       -0.22648221 0.58843935 -0.3160517 0.22189084
000360 5a 1c ff 3c 7b ae 59 be 60 e6 ba 3e 7d d8 81 3e
       0.031141449 -0.21257965 0.36503887 0.2536048
000370 99 16 7f 3e 49 44 a0 3e c7 82 be 3e e7 13 85 3e
       0.24910964 0.31302097 0.3720915 0.25991747
000380 e9 03 ad 3d 88 f4 8f 3e 63 60 04 be 1c bd d6 be
       0.084480114 0.2811625 -0.12927394 -0.41941154
000390 e3 11 0f 3e ed 34 54 3e b2 66 c6 3e 8f 83 0b be
       0.13971667 0.20723315 0.38750225 -0.13624404
0003a0 a9 b5 13 bd e3 0a 11 3f 52 63 9e be b0 91 6f 3e
       -0.036061917 0.56657237 -0.3093515 0.23395419
0003b0 d2 7a 85 bd 4b e0 ac 3d d5 a2 1a bd b8 d4 4d 3e
       -0.06517567 0.08441218 -0.037752945 0.20100677
0003c0 19 04 0b be 10 48 1c 3f c0 3a 8c 3d 61 90 a0 3d
       -0.13575782 0.6104746 0.06847143 0.07840038
0003d0 e5 f0 0e 3f 89 40 dd be 32 f2 3d 3f 9c 24 3e 3f
       0.55836326 -0.432133 0.74197686 0.7427461
0003e0 51 7d 2b 3f 1e d0 82 3e 17 a4 79 be 25 b3 73 3e
       0.6698809 0.25549406 -0.24379002 0.23798807
0003f0 68 8f a0 be 3b 98 66 be 46 e2 14 be b5 0c 4b 3e
       -0.3135941 -0.22519009 -0.14539441 0.19829066

l1.bias f4 [8]
000000 51 32 2b 3f 5a 03 52 3f eb 3d 35 3f c0 75 3a 3f
       0.6687365 0.82036364 0.70797604 0.7283592
000010 6f f4 13 3f c5 9c 64 3f 5b 4d 15 3f 08 36 5c 3f
       0.5779485 0.8930171 0.5832116 0.86019945

l2.weight f4 [8, 8]
000000 74 60 c4 3e 1e ef 53 3f f3 7a 56 3f 4d 4b 4e bf
       0.38354838 0.8278674 0.83781356 -0.8058365
000010 c1 15 93 be 9b fd 3d be da a2 3d bf 82 6a 24 3f
       -0.28727534 -0.18553774 -0.74076617 0.6422502
000020 f6 0a 1e bf f3 31 04 3f 7d 51 83 3f 13 15 ff be
       -0.61735475 0.51638716 1.0259243 -0.49820766
000030 05 60 29 bf 7a da bd bd e4 2d ae 3f f2 d8 93 3f
       -0.6616214 -0.09270187 1.3607755 1.1550581
000040 5b 28 8f 3e b8 da 31 3f b5 80 31 3f 3c 95 08 bd
       0.27960476 0.69474363 0.69337016 -0.033345446
000050 e1 28 04 3f 3c 0a ae bf 31 1f 42 bf b6 a5 d8 be
       0.51624876 -1.3596873 -0.75828844 -0.42313927
000060 b5 d7 ae 3d 14 76 9c be 29 5d 93 bd 5c 5a 58 be
       0.085372366 -0.30558836 -0.07195503 -0.2112822
000070 03 1f 9b b9 09 9a 7f be b2 27 48 3e 71 d9 ee 3d
       -0.0002958701 -0.24961103 0.19546393 0.116625674
000080 82 b3 57 3f 8d a5 4e 3e 41 88 4c 3f d2 a3 6b 3f
       0.8425828 0.2018034 0.79895407 0.92046845
000090 53 d5 e6 bc ac 94 6f 3f ec 6d 41 bf bd 31 be 3e
       -0.028177893 0.9358623 -0.7555835 0.37147322
0000a0 07 6b 5a 3f f7 58 29 3f 18 ac ea 3e 89 7d 49 3f
       0.8531956 0.66151375 0.45834422 0.78707176
0000b0 81 27 b5 3f 7a 2c 82 be 7a e6 72 3e 00 b6 73 bf
       1.4152681 -0.25424558 0.23720732 -0.95199585
0000c0 eb dd 8f 3f 48 06 99 3f 26 89 8c bf 73 6f 9a 3e
       1.1239599 1.1955042 -1.0979354 0.30163154
0000d0 71 85 61 3e 71 f5 21 3f 3d c7 cb 3f 60 4a 62 3f
       0.2202356 0.6326514 1.5920178 0.8839474
0000e0 0b 5a 39 bf 52 f8 e3 be 85 3e 61 3f 7c f5 b3 3f
       -0.7240302 -0.4452539 0.8798602 1.4059291
0000f0 d0 28 e3 3e dc 58 b5 3f 39 ec 8b 3e 01 3b aa 3c
       0.44367075 1.4167743 0.2732866 0.020780088

l2.bias f4 [8]
000000 44 2a 1f 3f 21 f4 8b 3e 28 a0 f5 3e d9 12 77 be
       0.6217387 0.27334693 0.47973752 -0.24128284
000010 43 6f e5 3d 8f cb 1a 3e 13 51 28 3f 09 48 35 3f
       0.11202862 0.15116714 0.6574871 0.7081304

l3.weight f4 [10, 8]
000000 0c f4 aa bf 48 71 14 bf 5a 56 a8 bf 3a 1e 02 be
       -1.3355727 -0.57985353 -1.3151352 -0.12706843
000010 4e d0 ed 3e 58 c1 44 3e 42 f2 90 bf 28 a6 2d 3f
       0.46447986 0.1921438 -1.1323931 0.6783166
000020 97 26 27 be 35 c5 54 3e c2 4a a5 bf 9e b0 a4 bd
       -0.16323315 0.20778354 -1.2913439 -0.080414996
000030 d3 ae 7a be d3 7c 83 3e a6 29 f4 3e 9e 13 97 bf
       -0.24480753 0.2568117 0.47688025 -1.1802862
000040 78 2d 99 bf 35 67 91 be 69 6d 88 3e d8 9c 01 be
       -1.1967001 -0.28399053 0.26645973 -0.12657487
000050 70 df ab bf 52 5a ec 3e 28 5b 47 3e b8 28 d6 3d
       -1.3427563 0.4616266 0.19468367 0.10456985
000060 62 7a 69 bd fc 0d 64 3f 72 29 aa bf 92 e8 f9 bd
       -0.05700148 0.8908384 -1.3293898 -0.122025624
000070 e4 c0 ae bf 3b f0 8c bf 6a 5c 06 3f 28 63 9f bf
       -1.3652616 -1.1010813 0.5248476 -1.2452135
000080 13 21 8f 3e 18 12 1e 3f 5f 42 73 bf 81 ac 22 bd
       0.2795492 0.6174636 -0.9502315 -0.039715294
000090 3e 51 42 3e 9d 07 ea be 8d 5d a9 bf 73 f6 00 3f
       0.18976304 -0.45708933 -1.3231674 0.5037605
0000a0 1e c1 76 bd 02 c8 89 3e 76 d5 d9 bf 6a 6f 05 3e
       -0.060242765 0.26910406 -1.7018268 0.13030782
0000b0 9e 15 2b bd 35 db ed bf cd fb a4 3e 3b e3 28 3f
       -0.041768663 -1.8582522 0.3222336 0.65971726
0000c0 b4 74 0d bf 70 f8 c1 bf a2 48 89 bf 75 63 47 be
       -0.552562 -1.5153942 -1.0725291 -0.19471534
0000d0 38 ec 23 3f a2 4c 5e 3d 2f 02 e3 3e 09 31 9a 3d
       0.64032316 0.0542723 0.44337603 0.07528884
0000e0 5d dd 02 3f 8b 84 a7 bf 89 17 2c 3f 00 d3 9b be
       0.51119024 -1.3087324 0.6722341 -0.30434418
0000f0 a7 f0 83 be 66 4c 96 3e 79 f0 25 3e cc 03 aa bf
       -0.2576954 0.29355162 0.16205014 -1.3282409
000100 6d 29 cd be ac a3 b7 be a2 d0 d5 3e f1 28 80 3e
       -0.40070668 -0.3586706 0.41760737 0.25031236
000110 79 95 53 3d 32 6d fa 3e 9c 54 96 bf a9 31 88 3d
       0.05165622 0.48911434 -1.1744571 0.06650097
000120 af ca 3a 3f a8 73 15 3f 5c f0 26 3f d9 9b 35 3e
       0.7296552 0.583796 0.6521051 0.17735232
000130 44 78 85 3c 0c 51 8b bf 5a b5 3b be 5d d4 1c bf
       0.016292699 -1.0884109 -0.18330899 -0.6126154

l3.bias f4 [10]
000000 ab d0 1d be 40 ff 37 be e5 48 bb bd 24 b6 00 3e
       -0.15411632 -0.17968464 -0.09144763 0.12569481
000010 e8 69 8a be cd 77 e5 3e c4 dd 3c 3e 1d 4f a1 3e
       -0.27033925 0.44817963 0.18443972 0.3150567
000020 92 79 17 3e 47 f5 f0 3d
       0.14792469 0.11765533
