data.pth (torch, 7935 bytes, 6 tensors)

l1.weight f4 [8, 103]
000000 02 7a d1 be ba 49 26 be cf 24 33 bd 64 55 0e 3f
       -0.40913397 -0.16239062 -0.043736275 0.55599046
000010 b8 88 26 3f e6 2d d4 be d6 f7 2d 3e 38 c0 03 be
       0.65052366 -0.41441268 0.16989073 -0.12866294
000020 d9 ba b2 3e cb a0 5f 3f b3 3c 35 3f be 04 42 3f
       0.34908178 0.87354726 0.70795745 0.75788486
000030 e5 77 66 3f 19 c8 2a 3f 81 df ed 3e 00 e4 c5 be
       0.90026695 0.66711575 0.46459582 -0.38650513
000040 43 11 12 bf 3c 64 b5 be 7d b9 79 3f 5a eb a1 be
       -0.5705759 -0.35428035 0.9754866 -0.31624871
000050 d4 3d 0c bf 8b 6b 1a 3f 27 82 42 3f 7a 7e 11 3f
       -0.5478184 0.6032035 0.75979847 0.5683361
000060 2c b6 95 be 35 a3 19 3f 01 5b 55 bf 7f 9d 3f 3e
       -0.2924055 0.6001466 -0.83341986 0.18712424
000070 80 e9 01 3f 54 92 a4 bb e1 23 08 bf f8 36 d8 3e
       0.5074692 -0.0050223265 -0.53179747 0.42229438
000080 08 17 c2 3e ed ff 94 3c ab 1f 36 3f 23 58 42 3f
       0.37908196 0.018188441 0.7114207 0.75915736
000090 52 f9 5f be 54 5f 78 3f 84 bd fd bc 0e 35 7e 3f
       -0.21872452 0.9702046 -0.030974157 0.99299705
0000a0 b9 91 72 3f 49 ab 9b 3d c3 24 5e 3f 84 c6 3b bf
       0.94753605 0.076010294 0.86774844 -0.73349786
0000b0 0f 6c 82 3d 64 b0 e7 be 9d ae 22 be 31 5f cc be
       0.06368267 -0.45251763 -0.15886922 -0.39916375
0000c0 54 58 37 3f cf 9e 05 3f 37 8c ce 3e e9 52 cf 3c
       0.71619153 0.5219545 0.4034135 0.02530809
0000d0 d2 1c 0d 3f 8b 98 d9 bd ce 6c 32 bf 04 f3 2b 3f
       0.551221 -0.106247984 -0.6969727 0.6716769
0000e0 a4 02 25 3f 8a 21 e0 be 9b 69 ee be 8c cf f6 3e
       0.64457154 -0.43775588 -0.46564946 0.4820522
0000f0 8f d0 02 3f 29 90 13 3f d3 40 f3 3e dc 5c d4 3e
       0.51099485 0.57641846 0.47510394 0.41477096
000100 41 9d 67 3f 68 9e 10 bf 11 00 67 3f 52 48 cd be
       0.90474325 -0.5649171 0.90234476 -0.4009424
000110 38 f7 af be 27 c5 4c 3f dc a2 f5 3e a7 5e d4 be
       -0.343683 0.7998833 0.47975814 -0.41478464
000120 0c 14 2b 3f c4 31 21 3f ea e8 48 bd 62 70 48 3f
       0.66827464 0.6296656 -0.04905025 0.7829648
000130 2a f1 d1 3e 35 17 d9 3d 95 3f 5d 3e bd af fd 3e
       0.41004306 0.106001295 0.21606286 0.4954814
000140 ec 41 e3 be 17 88 af bd ef fc ec be 99 49 27 3f
       -0.44386232 -0.08570879 -0.46286723 0.65346676
000150 a9 89 0e 3f 15 da 21 3f 5d fb 51 bd 03 fc 27 bf
       0.556788 0.6322339 -0.05126511 -0.65618914
000160 19 a7 03 3c 09 b8 e0 3e b3 64 b3 3e 07 93 9c be
       0.008035445 0.43890408 0.35037765 -0.30580923
000170 a8 b6 00 bf ea b7 db 3e 43 39 be bd 06 7f 4e 3e
       -0.5027871 0.42913753 -0.092882656 0.20165643
000180 8d 15 00 bf a2 5c 13 3f 88 9b 9d 3d 2c 39 9f be
       -0.50032884 0.5756322 0.07695681 -0.31098306
000190 9e 10 92 be 29 37 23 3f b4 c1 ad 3e 4a e1 6a 3f
       -0.28528303 0.6375604 0.33936846 0.91750014
0001a0 cc de 25 3f 79 d6 a6 be cd 6e 95 3e 4e 59 12 3f
       0.64793086 -0.32585505 0.29186097 0.5716752
0001b0 e2 64 1c 3f e6 72 73 bf ee 99 80 be 31 b2 e6 be
       0.61091435 -0.95097196 -0.2511744 -0.45057824
0001c0 00 58 ce 3e 9b 95 d2 3e 55 4b 0e bf de 95 bd 3e
       0.40301514 0.41129765 -0.555837 0.37028402
0001d0 fb 3f 19 3f 6e c8 64 3e 4f 98 3a 3f 2b 9b 19 3f
       0.5986325 0.22342083 0.72888654 0.6000239
0001e0 c5 78 17 3f 7d 22 3c 3f 7e 57 61 3f 8d b1 af 3f
       0.59168655 0.73490125 0.8802413 1.3726059
0001f0 a3 a5 19 3f 12 52 bd 3e 80 ed 14 3f 64 d6 51 3f
       0.60018367 0.36976677 0.58174896 0.8196776
000200 6c c2 cd 3e 5a e1 23 3f 5a 1a 69 bf ec 0d bc be
       0.40187395 0.64015734 -0.91055834 -0.36729372
000210 fd 29 73 3f 36 12 10 3f 91 9f 45 bf a2 10 93 be
       0.94985944 0.5627779 -0.77196604 -0.28723627
000220 92 3d 3f bf cd 72 54 3e 94 bd 17 bf 9a f1 c6 3e
       -0.74703324 0.20746918 -0.5927365 0.38856202
000230 43 7f a5 3e ba 64 07 bf 83 fe a0 3e c8 ff 8c 3e
       0.32323655 -0.5288807 0.31444177 0.27538896
000240 18 23 d7 3e 10 80 16 3e 4f ca 32 3f 1b dd 29 bf
       0.42018962 0.1469729 0.6983995 -0.66353005
000250 55 e8 4f 3f 6b 93 6c 3e c5 86 f1 3e 4a 29 68 bf
       0.81213886 0.2310311 0.47173133 -0.90688
000260 55 6d ca 3e b0 34 2a bf 58 6d 12 3f 0e 9d f5 be
       0.3953654 -0.66486645 0.57198095 -0.47971386
000270 a0 ec d0 be c3 c2 f6 3b ee a1 56 3f 30 77 da 3e
       -0.4080553 0.0075305416 0.83840835 0.42669058
000280 4d 5d 94 3f ad 19 0d 3f 8c df e0 3e db f1 11 3f
       1.1590973 0.55117303 0.43920553 0.5700967
000290 44 8d fb 3d 57 df 65 3e 47 c8 f4 be e6 b5 02 3f
       0.12282804 0.22448479 -0.4780905 0.51058805
0002a0 28 4e 10 3f 94 8f 00 3f cc f4 b5 3e 61 23 36 3f
       0.56369257 0.5021908 0.35538328 0.71147734
0002b0 c1 8b 95 bf 6e fc e2 be 99 c3 aa be c3 2d 0a 3f
       -1.1683275 -0.44333214 -0.33352354 0.53976077
0002c0 73 be d1 be a7 0c 62 3f 06 ba 91 bf ad f9 dc be
       -0.40965614 0.88300556 -1.1384895 -0.43159238
0002d0 a3 a7 49 3f 3c b3 55 3f 4e e5 ef 3e 3f 39 a0 be
       0.7877142 0.83476615 0.46854633 -0.31293675
0002e0 12 ad fc 3e 72 d7 43 3f 89 e9 2c 3f 03 24 ef 3e
       0.49350792 0.7650062 0.67543846 0.46707162
0002f0 8e 83 40 bf 34 1e 5a be a0 84 8e bf 36 1e 00 bf
       -0.75200737 -0.21300584 -1.1134224 -0.500461
000300 ae b7 b3 3d 01 bf 42 3f 87 da 0e 3f 25 0b f0 3e
       0.087752685 0.760727 0.55802196 0.46883503
000310 24 c3 ff 3e f8 b2 9a be 9f e3 4b 3f 32 db 69 3f
       0.49953568 -0.30214667 0.796442 0.9135009
000320 c4 99 b8 be 6c 94 39 3f 02 fa 6a 3f 8f 8f 33 3f
       -0.36054814 0.724921 0.9178773 0.7014093
000330 5d e5 5d 3f 84 bb 0d 3f 25 30 26 bd 5d 33 15 3f
       0.86678106 0.5536425 -0.040573258 0.582815
000340 ce 3e 2c 3f ff 15 64 3e ee a8 42 bf 2b cb 1a 3f
       0.6728333 0.22274016 -0.76039016 0.6046626
000350 70 bf 87 be 04 1d 8d 3e 51 3d 25 3f 7f 82 7c be
       -0.26513243 0.275612 0.64546686 -0.24659155
000360 58 fb 2e bf f0 6e cb be b6 3d 16 3f c8 01 ec 3e
       -0.6835227 -0.39733076 0.58687913 0.4609511
000370 3d d5 9e bd f0 3d df 3e 48 06 af be 3f 54 0d 3f
       -0.07755516 0.43601942 -0.3418448 0.55206674
000380 df 0c 61 bf 57 c9 b6 3e 4e ed 16 3e 81 3a 9a 3e
       -0.87910265 0.35700485 0.14738962 0.3012276
000390 e6 76 44 be 1a a1 ae 3e 3f 76 af 3e 60 a8 1f bd
       -0.19185981 0.34107286 0.34269902 -0.038978934
0003a0 5e 42 e8 3e b4 3b ad be 43 2b d2 3e 38 ca 2c 3f
       0.45363134 -0.33834612 0.4104863 0.6749606
0003b0 31 3e 80 be 79 d1 cb 3e b8 54 f9 3e bd d1 1e 3f
       -0.25047448 0.39808252 0.48697448 0.62038785
0003c0 0a d2 35 be e6 1d cb be f9 c3 26 3e 16 32 cb be
       -0.17755905 -0.39671248 0.16285695 -0.3968665
0003d0 e6 19 cb bd b4 2d cb be e5 22 cb be 3a ad aa 3e
       -0.09917049 -0.39683306 -0.3967506 0.33335286
0003e0 21 82 31 3f 9f 99 33 3e 92 bf 1f 3f fa 03 ab 3c
       0.69339186 0.1753907 0.6240169 0.02087592
0003f0 3e 9b 94 3e 3d 4b b3 be ff 5b 27 3f 66 fc 6b bd
       0.2902469 -0.3501834 0.6537475 -0.057613753

l1.bias f4 [8]
000000 a1 17 8a 3f 83 a5 85 3f 59 2b cb 3e c5 e5 63 3f
       1.0788461 1.0441135 0.3968151 0.89022475
000010 93 10 94 3f c6 6b e4 3e 0c 2a 68 3f 5c 6d a2 3f
       1.1567558 0.44613475 0.9068916 1.2689624

l2.weight f4 [8, 8]
000000 78 0d ac 3f fb 5f 1f 3f ca f9 99 3f 0e f4 bd bc
       1.344161 0.6225583 1.2029355 -0.023187663
000010 63 cf 0c bf ec 98 85 be 6a ad 07 40 2e 33 51 bf
       -0.55003947 -0.26093233 2.1199594 -0.8171872
000020 e3 97 10 3d e5 a1 cb bd d5 8d 1b be 07 b7 28 be
       0.0353011 -0.09942988 -0.15190823 -0.1647607
000030 b6 7a b9 3d e6 b4 15 3e 73 05 5c 3e 63 c8 e2 3d
       0.090566084 0.14619789 0.21486454 0.11073377
000040 08 b4 8d 3f 69 87 b9 3f 6d 92 98 bf e9 4c c2 3f
       1.1070566 1.4494449 -1.1919686 1.5179721
000050 fe 6f d0 3d 81 b5 66 bf e2 ae ab be e4 91 c4 3d
       0.10177611 -0.90120703 -0.33531862 0.09598139
000060 16 f9 f2 bd ad 2d 14 3f f2 d6 42 bf 3b f1 ba bf
       -0.118639156 0.57882196 -0.7610923 -1.4604868
000070 06 dd ce 3f e5 df ff be 2e a3 d2 3f c6 0f ed 3f
       1.6161201 -0.49975505 1.6456048 1.8520439
000080 7f 64 25 bf c6 3a a3 3f e7 7e a3 3f 99 bb 0f 3e
       -0.6460647 1.2752311 1.2773103 0.14036407
000090 49 eb c8 bf e9 f0 b2 3f 49 03 a6 3e 42 ae 81 3f
       -1.5696803 1.397977 0.3242438 1.0131304
0000a0 14 93 76 be fc 0d 94 bb ae 45 a3 bd d0 b2 ac be
       -0.24079543 -0.0045182686 -0.07972275 -0.33730173
0000b0 01 ce 62 be d3 7b 50 be cb f7 1b bd 9a b7 6b 3d
       -0.22148897 -0.20359735 -0.03807811 0.057548143
0000c0 57 04 69 be 8a de 03 3f 0e ca ca be ad d1 34 bf
       -0.22755562 0.5151144 -0.3960728 -0.7063244
0000d0 cf 9e 2b bf bf b9 74 3e ae 52 95 bf 8c 23 5f 3e
       -0.670392 0.23898982 -1.1665857 0.21790904
0000e0 7a bb ae 3f b9 55 ba bf 5d 41 3a 3f c7 16 ad 3f
       1.3650963 -1.455741 0.72755986 1.3522576
0000f0 03 68 ac 3f 74 bf ab 3f fe c2 7d 3f 00 fc c8 3f
       1.3469242 1.3417802 0.9912566 1.5701904

l2.bias f4 [8]
000000 b1 88 9d be 38 32 99 be 5a 98 45 3f 89 4d 41 3f
       -0.3076835 -0.29921126 0.77185595 0.75508934
000010 09 2d ff 3e cf 45 a7 bd d8 49 dc bc c0 3d b8 3e
       0.49839047 -0.08167612 -0.02689068 0.35984612

l3.weight f4 [20, 8]
000000 83 53 3d 3e ad 8a 91 3e cb 0d 39 3f e2 73 b7 bf
       0.18488888 0.28426114 0.7228667 -1.433224
000010 28 05 c1 bf 1b 1e f5 3d 5e 6f 9d be f7 22 e9 bd
       -1.5079699 0.11968633 -0.3074903 -0.11383622
000020 24 80 0d 3e 62 39 dd 3d 1d 69 9f bf 98 20 99 bf
       0.13818413 0.108019605 -1.2453953 -1.1963072
000030 e4 c8 f1 bd 19 86 9d be f8 a0 ae bf b5 6c f3 3e
       -0.11805895 -0.3076637 -1.3642874 0.47543874
000040 65 3d ce bf a9 ec 92 3e a5 ee ab bf 8a 7d 98 bf
       -1.6112486 0.28696182 -1.3432204 -1.1913311
000050 92 9a 31 3f 10 1f 8b be 87 67 87 3f b4 1c 8f 3e
       0.6937648 -0.27172136 1.0578469 0.27951586
000060 45 21 e2 3d 9d 71 ed 3d 17 b8 60 3e 4f e1 eb 3e
       0.11041502 0.11593936 0.21945225 0.46070334
000070 8d b5 05 bf 94 83 00 be 54 d3 57 bf 8a ea 80 bf
       -0.5223015 -0.12550193 -0.84306836 -1.0071576
000080 7f 22 1c bf c2 20 0d 3d 0d 08 3c 3e 6d f5 eb bf
       -0.60990137 0.03445507 0.18362446 -1.8434273
000090 ee 25 2f be dd 4e 16 be b2 9e 0f bf bc 25 ea 3e
       -0.17104313 -0.14678521 -0.56101525 0.45731914
0000a0 88 c2 b6 bf 72 f7 e1 bd 12 77 b6 3e 1e c0 c5 3e
       -1.4278116 -0.110335246 0.35637718 0.38623136
0000b0 0c 5b 3c bd e9 27 59 bd ce 54 46 3f 53 3f ca bf
       -0.045985267 -0.053016577 0.7747315 -1.5800575
0000c0 19 e3 02 3f a9 fd 69 bd c2 85 9c 3e 79 5a b5 bf
       0.51127774 -0.057126675 0.305708 -1.4168235
0000d0 47 31 02 be a7 52 9f be 19 7e a5 bf 0b ac 3a bf
       -0.1271411 -0.31117746 -1.2929107 -0.72918767
0000e0 31 06 f4 bf 0a 9b be be e3 13 18 3c b0 78 39 3f
       -1.906439 -0.3722766 0.009282085 0.7244978
0000f0 af 80 78 be 8a 57 fe 3d 93 63 95 bf 0c af 21 bf
       -0.24267839 0.124190405 -1.1671013 -0.63157725
000100 c7 a9 0f 3e 6b cc 04 be 60 d2 ab bf 2e 00 19 bd
       0.14029609 -0.12968604 -1.3423576 -0.037353687
000110 6b be 71 bf 2c 81 3f 3e 41 9d a3 be 96 e3 05 3f
       -0.9443118 0.18701619 -0.31955913 0.52300394
000120 18 1c 3c 3e de 0a 64 be 2c 7c 65 bf 54 fb b4 bf
       0.18370092 -0.2226977 -0.89642596 -1.4139199
000130 c2 91 0a 3f 8c 0b 9e be ea 8e 87 bf e0 3e 6d be
       0.5412866 -0.30868185 -1.0590489 -0.23168516
000140 41 0e c0 bf 66 3f 06 bf 4d 42 2b 3f ea 71 74 bd
       -1.500435 -0.5244049 0.6689804 -0.05967895
000150 b4 6e 05 c0 5c 94 67 be 47 ea a8 bd 14 69 fb 3e
       -2.0848818 -0.22615188 -0.0824781 0.49103606
000160 f8 97 5a bd 4f 2f 49 3c 54 f5 d6 bb a4 46 61 3f
       -0.053367585 0.012279346 -0.006560007 0.87998414
000170 4e f9 18 c0 e7 74 8d 3d 0c 51 3e be d5 65 03 be
       -2.3902164 0.06907063 -0.18585604 -0.12831815
000180 93 e1 e0 be 00 f0 89 3e ac cc 61 3f c4 02 8f bf
       -0.439221 0.26940918 0.8820293 -1.1172719
000190 22 05 f9 bc 0d 7f 5c be cd 6b 83 bf da d0 91 bf
       -0.030397955 -0.21532841 -1.0267273 -1.1391861
0001a0 3f fe b2 bf 0a 25 a4 bd fa 72 aa 3e 97 65 06 bf
       -1.398384 -0.08014877 0.33290845 -0.52498764
0001b0 e4 2c c9 3e 20 7c ae be 1c ce af bf 98 77 1e be
       0.3929206 -0.34079075 -1.3734775 -0.15475309
0001c0 6c 0b 58 3e 47 a2 bb bd 9c 16 af bf 53 4d f1 3d
       0.21098107 -0.09161811 -1.3678775 0.117823265
0001d0 bd aa 0a bd 7c 69 8d bd 81 a6 31 bf 2f 8c 69 be
       -0.033854235 -0.06904885 -0.6939469 -0.22807382
0001e0 0b f6 e2 3e 2f 60 a0 be 00 a7 0b bd de 96 35 bf
       0.4432834 -0.31323382 -0.03409481 -0.7093333
0001f0 da 29 b1 be 7d 0b 3c 3e f8 73 d3 be 75 a4 af 3d
       -0.34602243 0.18363757 -0.41299415 0.085762896
000200 ca 8e 96 3e 39 fb be be a2 8c 57 bd 21 2e 56 3e
       0.29405814 -0.37301043 -0.052624352 0.20916034
000210 82 a6 9f 3d 5b 8a 21 3e 85 c8 86 bf c7 c8 0f c0
       0.07795431 0.15775435 -1.0529944 -2.2466295
000220 75 9f ea 3e 7e a7 0d 3c d4 7e 49 be 57 15 ab bf
       0.4582478 0.00864589 -0.19677287 -1.3365887
000230 47 e9 c7 bf 54 61 92 be 9f 28 47 3e 8a cb ef 3e
       -1.5618066 -0.2858988 0.1944909 0.46834975
000240 20 6b a5 bf ae 56 45 bf dd 3d ef bf bc e5 da 3e
       -1.2923317 -0.7708539 -1.8690754 0.42753398
000250 bb da 4b 3e 06 08 9d bd 40 d6 d3 bf b4 5a 8b 3c
       0.19907658 -0.07667546 -1.6549759 0.017011024
000260 0b 7c ea bf f3 13 3f 3e 75 b8 8b bf 34 c0 50 3f
       -1.8319105 0.18659954 -1.0915667 0.8154328
000270 9e e0 92 bf 72 f2 96 3e 11 c1 1c bf b7 4a eb 3e
       -1.1474798 0.29481846 -0.61232096 0.4595544

l3.bias f4 [20]
000000 ac 8e 3d 3e 8d 73 51 be 55 a8 69 be 6d ec aa 3e
       0.18511456 -0.20454235 -0.2281812 0.33383504
000010 15 75 1d 3d 85 89 d3 3e 07 c8 08 be 72 9f ac 3d
       0.038441736 0.41315857 -0.13357554 0.08428849
000020 ac 00 97 be be 23 a5 3c a6 61 14 be 91 e9 01 be
       -0.294927 0.020158645 -0.14490375 -0.12686755
000030 00 49 a5 3e 38 89 32 3c 53 3b f6 be b8 c0 e0 bc
       0.32282257 0.010896973 -0.48092136 -0.027435645
000040 5a a4 c0 bd 5c b0 90 be cc f1 75 3e 59 be 88 3e
       -0.094063476 -0.28259552 0.2401802 0.26707724
