courses/data.pth (torch, 5887 bytes, 6 tensors)

l1.weight f4 [8, 72]
0.17932387 0.6739011 -0.010487471 -0.35165858 -0.11459393 0.19435063 -0.15483578 0.3735735
0.6151684 0.48745576 0.40450463 0.6979817 -0.17814276 -0.15826875 0.062916726 -0.015220936
0.42425665 0.024842639 0.7359534 0.109742515 -0.83797 -0.07309587 -0.06887904 -0.6924101
0.4444411 -0.07355954 0.6280868 0.2441637 -0.15883991 -0.20912139 -0.10808417 -0.107081056
-0.5309816 0.48102486 -0.05588853 -0.30565512 0.6595198 0.36280555 0.4724528 0.36762393
-0.11311038 -0.18123853 0.7289473 0.63801557 0.024026234 0.14295863 0.37713253 0.6437876
0.14832225 0.7925053 0.9205493 -0.3726744 0.07262411 0.33666974 0.017947981 0.4725078
0.1429006 0.42521268 0.07716567 0.100760184 0.46278578 -0.74079335 -0.083233595 -0.014755133
0.26757196 0.01794829 0.12891226 0.5018752 0.24826525 -0.25168788 0.800173 0.3518663
0.4477588 -0.21205132 0.23939602 0.6177848 0.2754361 0.26849708 0.8136194 0.27613425
-0.7447926 0.30598637 -0.20108695 -0.45122683 0.49972606 0.41822276 0.41054007 0.45960313
-0.29428133 0.6778598 0.5166944 0.25405222 0.8978945 0.13440847 -0.47098017 0.6402135
0.5349555 0.7899333 -0.7448131 0.43618393 0.9485749 -0.39715087 1.0656585 1.0196294
0.6942056 0.3694508 0.5888932 0.093461804 0.71943647 0.061465047 0.6538858 -0.4240163
-0.39974576 0.59856915 -0.3665738 0.7634261 -0.5136392 0.25935793 0.068641566 -0.6389232
0.3059991 -0.43418604 -0.44913775 0.62792826 0.23201005 -0.39275092 0.5888804 0.6498875
0.3678919 -0.20579635 0.27514037 0.39769277 0.7804683 -0.79963183 -0.44105488 0.31947526
0.6150089 0.21650524 0.18976898 0.5350773 0.5631462 0.57390356 -0.5368303 0.07220118
0.5364016 0.4900167 0.38557988 0.31578773 0.7432708 0.44620004 0.64551663 0.4378502
-0.53710634 0.520084 0.24317686 0.2827396 0.30862755 0.2873934 0.65634435 -0.0061980793
0.07231985 0.2412078 0.49499026 0.32424673 0.23748668 0.6471085 -0.08274571 0.2678866
0.5170308 0.22339095 -0.55489254 -0.48377863 0.49093154 -0.1443269 0.4537135 0.3853317
0.6077864 0.41642582 0.19167441 -0.22938286 0.83577454 -0.18694411 0.6354748 -0.17218077
-0.17883022 0.18770711 -0.06670081 0.7040064 -0.054186583 0.39491576 -0.18309195 0.36098152
0.42548203 -0.51860005 -0.51606363 0.27451828 0.45738629 -0.30154186 -0.562389 0.5628939
0.40710592 0.089243434 0.50108343 0.44928396 0.6234962 -0.68751556 -0.19640492 0.43495995
0.3090932 0.3215537 0.35836816 -0.5517373 -0.40032732 0.4337476 -0.45116195 0.117446795
0.1669475 -0.75017154 -0.34131396 0.38181975 -0.6546792 -0.33595154 0.60920864 0.3506895
-0.06809427 -0.12583733 -0.3916792 -0.7528109 0.16760704 0.3488239 -0.4202652 0.6683484
-0.23674305 0.56713337 0.2421121 -0.215411 0.17230779 -0.55253613 -0.2789556 0.048809342
0.06258499 0.53355885 -0.13192439 0.53111243 0.79750353 0.7638027 0.8451106 0.8713043
0.16206399 -0.021277677 0.26020047 0.7747909 -0.16114777 0.49679205 -0.32745457 -0.07453529
00000000: ada0 373e c884 2c3f a4d3 2bbc 980c b4be
00000010: 39b0 eabd da03 473e 458d 1ebe 0745 bf3e
00000020: ad7b 1d3f cd93 f93e 3b1b cf3e eeae 323f
00000030: 0e6b 36be 3411 22be 7cda 803d 3c61 79bc
00000040: 2b38 d93e ca82 cb3c 7167 3c3f afc0 e03d
00000050: 3485 56bf 4ab3 95bd 7410 8dbd ca41 31bf
00000060: c98d e33e 62a6 96bd 4cca 203f 0d06 7a3e
00000070: eea6 22be eb23 56be 3c5b ddbd 504d dbbd
00000080: 69ee 07bf e448 f63e 5feb 64bd d47e 9cbe
00000090: 4ad6 283f a6c1 b93e 55e5 f13e 3439 bc3e
000000a0: 6aa6 e7bd 9896 39be 4a9c 3a3f fd54 233f
000000b0: aad2 c43c bf63 123e 8417 c13e 44cf 243f
000000c0: cae1 173e a1e1 4a3f 1ea9 6b3f 2ecf bebe
000000d0: f3bb 943d fa5f ac3e a507 933c 8bec f13e
000000e0: 8954 123e 7ab5 d93e 0909 9e3d 5b5b ce3d
000000f0: 42f2 ec3e a2a4 3dbf 6076 aabd 83bf 71bc
00000100: 31ff 883e 4b08 933c 9301 043e e57a 003f
00000110: 3f39 7e3e 3cdd 80be 23d8 4c3f d227 b43e
00000120: a440 e53e fb23 59be 3b24 753e 2527 1e3f
00000130: f605 8d3e 7378 893e 5c49 503f 7861 8d3e
00000140: baaa 3ebf 3faa 9c3e bde9 4dbe 3407 e7be
00000150: 18dc ff3e 4b21 d63e 4f32 d23e 1a51 eb3e
00000160: 0bac 96be 3888 2d3f 1646 043f 2213 823e
00000170: 6adc 653f 60a2 093e 5024 f1be 08e5 233f
00000180: d8f2 083f 1239 4a3f 12ac 3ebf 8053 df3e
00000190: ced5 723f 5c57 cbbe 7f67 883f 3783 823f
000001a0: 75b7 313f a828 bd3e b4c1 163f e768 bf3d
000001b0: fd2c 383f c6c2 7b3d 0f65 273f aa18 d9be
000001c0: 7aab ccbe d43b 193f 90af bbbe e56f 433f
000001d0: dc7d 03bf 90ca 843e f393 8c3d 7990 23bf
000001e0: eaab 9c3e a24d debe 62f5 e5be e8bf 203f
000001f0: 0b94 6d3e a616 c9be dec0 163f 075f 263f
00000200: 545c bc3e 47bc 52be 33df 8c3e 639e cb3e
00000210: c5cc 473f acb4 4cbf f2d1 e1be 4392 a33e
00000220: 3971 1d3f 8db3 5d3e cd52 423e d3fa 083f
00000230: 592a 103f 58eb 123f b66d 09bf 36de 933d
00000240: 9e51 093f 78e3 fa3e ba6a c53e eeae a13e
00000250: ff46 3e3f 5574 e43e 9440 253f e72d e03e
00000260: cd7f 09bf 3a24 053f 5b03 793e 3fc3 903e
00000270: 6e04 9e3e 3a25 933e 2f06 283f 4219 cbbb
00000280: 6e1c 943d 2dff 763e 5d6f fd3e ab03 a63e
00000290: b52f 733e e7a8 253f 9576 a9bd 6f28 893e
000002a0: 215c 043f 99c0 643e 700d 0ebf d5b1 f7be
000002b0: 615b fb3e 6eca 13be 234d e83e 324a c53e
000002c0: e497 1b3f c435 d53e 4c46 443e 57e3 6abe
000002d0: 52f5 553f 476e 3fbe 7aae 223f 2850 30be
000002e0: 451f 37be 4b36 403e 6f9a 88bd c339 343f
000002f0: c0f2 5dbd 6632 ca3e 757c 3bbe 92d2 b83e
00000300: c8d8 d93e f9c2 04bf bf1c 04bf a98d 8c3e
00000310: 892e ea3e b263 9abe baf8 0fbf d119 103f
00000320: 3070 d03e 43c5 b63d 0147 003f 8c08 e63e
00000330: 729d 1f3f 0501 30bf 5f1e 49be 12b3 de3e
00000340: 7741 9e3e b0a2 a43e 087c b73e a83e 0dbf
00000350: b4f7 ccbe 2a14 de3e b3fe e6be f287 f03d
00000360: 49f4 2a3e 3e0b 40bf b4c0 aebe e17d c33e
00000370: 0e99 27bf d701 acbe 19f5 1b3f 938d b33e
00000380: 0275 8bbd 80db 00be 2d8a c8be 37b8 40bf
00000390: 2ea1 2b3e 0c99 b23e 002d d7be e118 2b3f
000003a0: c56c 72be a72f 113f 3cec 773e b494 5cbe
000003b0: 7471 303e 0273 0dbf 45d3 8ebe 4eec 473d
000003c0: 8f2c 803d 5097 083f 3017 07be fcf6 073f
000003d0: 3129 4c3f 9388 433f 2b59 583f cc0d 5f3f
000003e0: 1af4 253e 864e aebc ff38 853e b258 463f
000003f0: ec03 25be 875b fe3e 20a8 a7be f5a5 98bd

l1.bias f4 [8]
0.6520803 0.7448275 0.5701212 1.1614411 -0.12493642 0.95393103 0.7817672 0.84254265
00000000: bcee 263f 04ad 3e3f 77f3 113f 1aaa 943f
00000010: aade ffbd d334 743f e521 483f e0b0 573f

l2.weight f4 [8, 8]
0.94707966 1.0368557 0.40353474 1.0142384 -0.21845882 0.7382401 -1.4848659 -0.72385675
-0.302465 -0.09189353 0.24577947 0.0699201 0.2816294 -0.148003 -0.020078758 -0.28321275
-0.031664234 0.110154554 -0.03336617 0.081108496 0.33616883 -0.12597306 -0.18614464 -0.24040593
-0.12263291 1.1770403 1.2029903 0.07646368 0.19871986 -0.7594452 1.2622052 1.5846837
-0.16561039 -0.2146657 0.007977682 -0.22664097 -0.26130906 -0.23512079 0.3009791 -0.33011174
0.60221535 -1.2671937 -1.2126479 1.0249606 0.18017565 1.6452421 1.1826771 0.33507812
-0.5847863 0.75208384 -0.4635805 1.416645 0.19070107 0.3787335 -0.9434999 1.0425953
1.4167182 0.12276471 0.6921695 -0.21166717 0.32083327 0.8158284 0.51817626 -1.3825369
00000000: d073 723f b0b7 843f 1b9c ce3e 90d2 813f
00000010: abb3 5fbe 4efd 3c3f 1610 bebf ad4e 39bf
00000020: b1dc 9abe ad32 bcbd 9dad 7b3e 4532 8f3d
00000030: bb31 903e 198e 17be 357c a4bc 4301 91be
00000040: 5bb2 01bd b698 e13d f7aa 08bd 361c a63d
00000050: 521e ac3e 15ff 00be b39c 3ebe f92c 76be
00000060: f726 fbbd 42a9 963f 96fb 993f fd98 9c3d
00000070: 387d 4b3e 006b 42bf f18f a13f ead6 ca3f
00000080: c595 29be 53d1 5bbe d3b4 023c 9214 68be
00000090: 4dca 85be 81c3 70be ef19 9a3e 6804 a9be
000000a0: c92a 1a3f 6733 a2bf 0c38 9bbf e931 833f
000000b0: f77f 383e 4b97 d23f f761 973f 5c8f ab3e
000000c0: 8eb4 15bf 9188 403f 6c5a edbe a054 b53f
000000d0: 2447 433e 5be9 c13e 3689 71bf c373 853f
000000e0: 0657 b53f 106c fb3d 0532 313f 47bf 58be
000000f0: 4244 a43e 21da 503f 33a7 043f f8f6 b0bf

l2.bias f4 [8]
-0.033748895 -0.3133609 -0.17087984 0.5310667 -0.1316351 0.94235826 0.6951206 0.23801307
00000000: 483c 0abd d770 a0be 20fb 2ebe fdf3 073f
00000010: 5acb 06be 643e 713f 6cf3 313f b3b9 733e

l3.weight f4 [10, 8]
-0.9222284 0.19228724 -0.276563 0.7011934 -0.33537626 -1.3276517 -1.4210793 -0.9642103
0.4609532 -0.24191494 -0.23501311 -1.5245081 0.0130525 0.016707512 0.35050514 -0.066378735
-1.1393416 0.15318292 0.14958699 0.07904329 0.15727143 -0.26201743 -1.0684671 0.44701976
0.4187633 -0.20863895 -0.19275238 -0.5328606 0.25899133 -0.7784656 -0.36278322 0.35290927
-1.3022933 -0.2912762 0.28416437 0.3677059 0.07669816 -1.5479451 0.62714994 -1.4557252
-1.0650212 0.06631183 -0.25235665 -0.6294446 -0.07510998 0.97010356 -0.5708599 -0.08263943
0.39956126 -0.28571332 -0.2695184 -0.18380246 0.06595746 -0.7476895 0.9830479 -1.645711
0.005998983 0.10971941 0.1134868 -1.6150767 -0.32207358 0.33257312 -1.3190821 1.0583885
-1.1596414 -0.03613384 -0.02606132 0.24463941 0.25693616 0.0973222 -0.09581451 -1.5933108
-0.2682469 -0.30398503 -0.14690012 -1.2456505 -0.10813153 0.7386713 0.7402808 -1.8036969
00000000: 2917 6cbf f2e6 443e aa99 8dbe 6981 333f
00000010: 70b6 abbe 7ef0 a9bf ede5 b5bf 7cd6 76bf
00000020: 0f02 ec3e 8db8 77be 47a7 70be 1523 c3bf
00000030: 27da 553c 31de 883c 6975 b33e 93f1 87bd
00000040: f2d5 91bf fcdb 1c3e 552d 193e 73e1 a13d
00000050: c30b 213e 2627 86be 88c3 88bf c6df e43e
00000060: 2568 d63e 73a5 55be e160 45be 8d69 08bf
00000070: 839a 843e 8649 47bf b9be b9be 86b0 b43e
00000080: 8cb1 a6bf 2722 95be fe7d 913e f343 bc3e
00000090: ed13 9d3d 1123 c6bf e68c 203f 3455 babf
000000a0: 9d52 88bf 7fce 873d e434 81be 4823 21bf
000000b0: 43d3 99bd b558 783f e023 12bf dd3e a9bd
000000c0: 4b93 cc3e 0449 92be 51fe 89be b636 3cbe
000000d0: b414 873d 9468 3fbf 07a9 7b3f a8a6 d2bf
000000e0: 1e93 c43b 92b4 e03d c46b e83d d5ba cebf
000000f0: d4e6 a4be 0647 aa3e afd7 a8bf 4679 873f
00000100: 216f 94bf 1401 14bd 8d7e d5bc c182 7a3e
00000110: 238d 833e dd50 c73d 663a c4bd 9cf1 cbbf
00000120: a857 89be eda3 9bbe fc6c 16be 7a71 9fbf
00000130: 1074 ddbd 9019 3d3f 0b83 3d3f 8adf e6bf

l3.bias f4 [10]
0.32018602 -0.51020604 -0.24051689 -0.28864667 -0.087477185 0.2413109 0.005369322 -0.068740085
0.14803606 0.21363978
00000000: 6cef a33e dd9c 02bf 0f4a 76be 7fc9 93be
00000010: 3d27 b3bd 341a 773e 23f1 af3b 9ac7 8cbd
00000020: c496 173e 63c4 5a3e
